Running CNN

Model build ...
Model: "cnn_FULL_GRAY_CANNY"
_________________________________________________________________
Layer (type)                 Output Shape              Param #   
=================================================================
input (InputLayer)           [(None, 104, 138, 1)]     0         
_________________________________________________________________
conv64 (Conv2D)              (None, 104, 138, 64)      640       
_________________________________________________________________
activation (Activation)      (None, 104, 138, 64)      0         
_________________________________________________________________
dropout (Dropout)            (None, 104, 138, 64)      0         
_________________________________________________________________
conv128 (Conv2D)             (None, 104, 138, 128)     73856     
_________________________________________________________________
activation_1 (Activation)    (None, 104, 138, 128)     0         
_________________________________________________________________
dropout_1 (Dropout)          (None, 104, 138, 128)     0         
_________________________________________________________________
max_pooling2d (MaxPooling2D) (None, 52, 69, 128)       0         
_________________________________________________________________
flatten (Flatten)            (None, 459264)            0         
_________________________________________________________________
fc128 (Dense)                (None, 128)               58785920  
_________________________________________________________________
activation_2 (Activation)    (None, 128)               0         
_________________________________________________________________
dropout_2 (Dropout)          (None, 128)               0         
_________________________________________________________________
fc64 (Dense)                 (None, 64)                8256      
_________________________________________________________________
activation_3 (Activation)    (None, 64)                0         
_________________________________________________________________
dropout_3 (Dropout)          (None, 64)                0         
_________________________________________________________________
fc (Dense)                   (None, 3)                 195       
=================================================================
Total params: 58,868,867
Trainable params: 58,868,867
Non-trainable params: 0
_________________________________________________________________
Model fit ...
Epoch 1/50
97/97 - 88s - loss: 13.6308 - accuracy: 0.3196 - val_loss: 1.0984 - val_accuracy: 0.3534
Epoch 2/50
97/97 - 88s - loss: 1.0984 - accuracy: 0.3698 - val_loss: 1.0980 - val_accuracy: 0.3534
…
97/97 - 88s - loss: 1.0942 - accuracy: 0.3750 - val_loss: 60632.6914 - val_accuracy: 0.3567
Epoch 19/50
97/97 - 89s - loss: 1.0952 - accuracy: 0.3744 - val_loss: 1.0978 - val_accuracy: 0.3534
Epoch 00019: early stopping
Model save ...
Model saved!
Running DNN

Model build ...
Model: "deep_FULL_GRAY_CANNY"
_________________________________________________________________
Layer (type)                 Output Shape              Param #   
=================================================================
input (InputLayer)           [(None, 104, 138, 1)]     0         
_________________________________________________________________
flatten (Flatten)            (None, 14352)             0         
_________________________________________________________________
fc0 (Dense)                  (None, 1024)              14697472  
_________________________________________________________________
fc1 (Dense)                  (None, 512)               524800    
_________________________________________________________________
fc2 (Dense)                  (None, 256)               131328    
_________________________________________________________________
fc3 (Dense)                  (None, 128)               32896     
_________________________________________________________________
fc4 (Dense)                  (None, 64)                8256      
_________________________________________________________________
fc (Dense)                   (None, 3)                 195       
=================================================================
Total params: 15,394,947
Trainable params: 15,394,947
Non-trainable params: 0
_________________________________________________________________
Model fit ...
Epoch 1/50
97/97 - 88s - loss: 1.0767 - accuracy: 0.4336 - val_loss: 1.1409 - val_accuracy: 0.3922
Epoch 2/50
97/97 - 88s - loss: 0.9321 - accuracy: 0.5486 - val_loss: 1.3862 - val_accuracy: 0.4246
…
97/97 - 88s - loss: 0.1664 - accuracy: 0.9137 - val_loss: 3.6406 - val_accuracy: 0.3427
Epoch 13/50
97/97 - 87s - loss: 0.1471 - accuracy: 0.9178 - val_loss: 3.9896 - val_accuracy: 0.3502
Epoch 00013: early stopping
Model save ...
Model saved!
Running D-CNN

Model build ...
Model: "deep_cnn_FULL_GRAY_CANNY"
_________________________________________________________________
Layer (type)                 Output Shape              Param #   
=================================================================
input (InputLayer)           [(None, 104, 138, 1)]     0         
_________________________________________________________________
conv64 (Conv2D)              (None, 104, 138, 64)      640       
_________________________________________________________________
activation (Activation)      (None, 104, 138, 64)      0         
_________________________________________________________________
dropout (Dropout)            (None, 104, 138, 64)      0         
_________________________________________________________________
conv128 (Conv2D)             (None, 104, 138, 128)     73856     
_________________________________________________________________
activation_1 (Activation)    (None, 104, 138, 128)     0         
_________________________________________________________________
dropout_1 (Dropout)          (None, 104, 138, 128)     0         
_________________________________________________________________
conv256 (Conv2D)             (None, 104, 138, 256)     295168    
_________________________________________________________________
activation_2 (Activation)    (None, 104, 138, 256)     0         
_________________________________________________________________
dropout_2 (Dropout)          (None, 104, 138, 256)     0         
_________________________________________________________________
max_pooling2d (MaxPooling2D) (None, 52, 69, 256)       0         
_________________________________________________________________
flatten (Flatten)            (None, 918528)            0         
_________________________________________________________________
fc128_A (Dense)              (None, 128)               117571712 
_________________________________________________________________
activation_3 (Activation)    (None, 128)               0         
_________________________________________________________________
dropout_3 (Dropout)          (None, 128)               0         
_________________________________________________________________
fc128_B (Dense)              (None, 128)               16512     
_________________________________________________________________
activation_4 (Activation)    (None, 128)               0         
_________________________________________________________________
dropout_4 (Dropout)          (None, 128)               0         
_________________________________________________________________
fc128_C (Dense)              (None, 128)               16512     
_________________________________________________________________
activation_5 (Activation)    (None, 128)               0         
_________________________________________________________________
dropout_5 (Dropout)          (None, 128)               0         
_________________________________________________________________
fc (Dense)                   (None, 3)                 387       
=================================================================
Total params: 117,974,787
Trainable params: 117,974,787
Non-trainable params: 0
_________________________________________________________________
Model fit ...
Epoch 1/50
97/97 - 85s - loss: 57.5828 - accuracy: 0.3634 - val_loss: 1.5619 - val_accuracy: 0.3384
Epoch 2/50
97/97 - 86s - loss: 1.0998 - accuracy: 0.3702 - val_loss: 1.7100 - val_accuracy: 0.3621
…
