Running CNN

Model build ...
Model: "cnn_FULL_GRAY"
_________________________________________________________________
Layer (type)                 Output Shape              Param #   
=================================================================
input (InputLayer)           [(None, 104, 138, 1)]     0         
_________________________________________________________________
conv64 (Conv2D)              (None, 104, 138, 64)      640       
_________________________________________________________________
activation (Activation)      (None, 104, 138, 64)      0         
_________________________________________________________________
dropout (Dropout)            (None, 104, 138, 64)      0         
_________________________________________________________________
conv128 (Conv2D)             (None, 104, 138, 128)     73856     
_________________________________________________________________
activation_1 (Activation)    (None, 104, 138, 128)     0         
_________________________________________________________________
dropout_1 (Dropout)          (None, 104, 138, 128)     0         
_________________________________________________________________
max_pooling2d (MaxPooling2D) (None, 52, 69, 128)       0         
_________________________________________________________________
flatten (Flatten)            (None, 459264)            0         
_________________________________________________________________
fc128 (Dense)                (None, 128)               58785920  
_________________________________________________________________
activation_2 (Activation)    (None, 128)               0         
_________________________________________________________________
dropout_2 (Dropout)          (None, 128)               0         
_________________________________________________________________
fc64 (Dense)                 (None, 64)                8256      
_________________________________________________________________
activation_3 (Activation)    (None, 64)                0         
_________________________________________________________________
dropout_3 (Dropout)          (None, 64)                0         
_________________________________________________________________
fc (Dense)                   (None, 3)                 195       
=================================================================
Total params: 58,868,867
Trainable params: 58,868,867
Non-trainable params: 0
_________________________________________________________________
Model fit ...
Epoch 1/50
97/97 - 81s - loss: 79.2476 - accuracy: 0.3309 - val_loss: 1.1099 - val_accuracy: 0.3534
Epoch 2/50
97/97 - 74s - loss: 1.1019 - accuracy: 0.3702 - val_loss: 4.3810 - val_accuracy: 0.3534
…
97/97 - 78s - loss: 1.0946 - accuracy: 0.3750 - val_loss: 42829.8672 - val_accuracy: 0.3599
Epoch 18/50
97/97 - 76s - loss: 1.0943 - accuracy: 0.3750 - val_loss: 43454.9570 - val_accuracy: 0.3621
Epoch 00018: early stopping
Model save ...
Model saved!
Running DNN

Model build ...
Model: "deep_FULL_GRAY"
_________________________________________________________________
Layer (type)                 Output Shape              Param #   
=================================================================
input (InputLayer)           [(None, 104, 138, 1)]     0         
_________________________________________________________________
flatten (Flatten)            (None, 14352)             0         
_________________________________________________________________
fc0 (Dense)                  (None, 1024)              14697472  
_________________________________________________________________
fc1 (Dense)                  (None, 512)               524800    
_________________________________________________________________
fc2 (Dense)                  (None, 256)               131328    
_________________________________________________________________
fc3 (Dense)                  (None, 128)               32896     
_________________________________________________________________
fc4 (Dense)                  (None, 64)                8256      
_________________________________________________________________
fc (Dense)                   (None, 3)                 195       
=================================================================
Total params: 15,394,947
Trainable params: 15,394,947
Non-trainable params: 0
_________________________________________________________________
Model fit ...
Epoch 1/50
97/97 - 87s - loss: 1.2372 - accuracy: 0.2935 - val_loss: 1.1076 - val_accuracy: 0.3103
Epoch 2/50
97/97 - 84s - loss: 1.1043 - accuracy: 0.3238 - val_loss: 1.0979 - val_accuracy: 0.3534
…
97/97 - 71s - loss: 1.0955 - accuracy: 0.3724 - val_loss: 1.0978 - val_accuracy: 0.3534
Epoch 12/50
97/97 - 71s - loss: 1.0966 - accuracy: 0.3673 - val_loss: 1.0978 - val_accuracy: 0.3534
Epoch 00012: early stopping
Model save ...
Model saved!
Running D-CNN

Model build ...
Model: "deep_cnn_FULL_GRAY"
_________________________________________________________________
Layer (type)                 Output Shape              Param #   
=================================================================
input (InputLayer)           [(None, 104, 138, 1)]     0         
_________________________________________________________________
conv64 (Conv2D)              (None, 104, 138, 64)      640       
_________________________________________________________________
activation (Activation)      (None, 104, 138, 64)      0         
_________________________________________________________________
dropout (Dropout)            (None, 104, 138, 64)      0         
_________________________________________________________________
conv128 (Conv2D)             (None, 104, 138, 128)     73856     
_________________________________________________________________
activation_1 (Activation)    (None, 104, 138, 128)     0         
_________________________________________________________________
dropout_1 (Dropout)          (None, 104, 138, 128)     0         
_________________________________________________________________
conv256 (Conv2D)             (None, 104, 138, 256)     295168    
_________________________________________________________________
activation_2 (Activation)    (None, 104, 138, 256)     0         
_________________________________________________________________
dropout_2 (Dropout)          (None, 104, 138, 256)     0         
_________________________________________________________________
max_pooling2d (MaxPooling2D) (None, 52, 69, 256)       0         
_________________________________________________________________
flatten (Flatten)            (None, 918528)            0         
_________________________________________________________________
fc128_A (Dense)              (None, 128)               117571712 
_________________________________________________________________
activation_3 (Activation)    (None, 128)               0         
_________________________________________________________________
dropout_3 (Dropout)          (None, 128)               0         
_________________________________________________________________
fc128_B (Dense)              (None, 128)               16512     
_________________________________________________________________
activation_4 (Activation)    (None, 128)               0         
_________________________________________________________________
dropout_4 (Dropout)          (None, 128)               0         
_________________________________________________________________
fc128_C (Dense)              (None, 128)               16512     
_________________________________________________________________
activation_5 (Activation)    (None, 128)               0         
_________________________________________________________________
dropout_5 (Dropout)          (None, 128)               0         
_________________________________________________________________
fc (Dense)                   (None, 3)                 387       
=================================================================
Total params: 117,974,787
Trainable params: 117,974,787
Non-trainable params: 0
_________________________________________________________________
Model fit ...
Epoch 1/50
97/97 - 81s - loss: 81.7327 - accuracy: 0.3582 - val_loss: 41.2705 - val_accuracy: 0.3448
Epoch 2/50
97/97 - 81s - loss: 1.6159 - accuracy: 0.3695 - val_loss: 191.0511 - val_accuracy: 0.3405
…
