Running CNN

Model build ...
Model: "cnn_FULL_GRAY_WAV"
_________________________________________________________________
Layer (type)                 Output Shape              Param #   
=================================================================
input (InputLayer)           [(None, 104, 73, 1)]      0         
_________________________________________________________________
conv64 (Conv2D)              (None, 104, 73, 64)       640       
_________________________________________________________________
activation (Activation)      (None, 104, 73, 64)       0         
_________________________________________________________________
dropout (Dropout)            (None, 104, 73, 64)       0         
_________________________________________________________________
conv128 (Conv2D)             (None, 104, 73, 128)      73856     
_________________________________________________________________
activation_1 (Activation)    (None, 104, 73, 128)      0         
_________________________________________________________________
dropout_1 (Dropout)          (None, 104, 73, 128)      0         
_________________________________________________________________
max_pooling2d (MaxPooling2D) (None, 52, 36, 128)       0         
_________________________________________________________________
flatten (Flatten)            (None, 239616)            0         
_________________________________________________________________
fc128 (Dense)                (None, 128)               30670976  
_________________________________________________________________
activation_2 (Activation)    (None, 128)               0         
_________________________________________________________________
dropout_2 (Dropout)          (None, 128)               0         
_________________________________________________________________
fc64 (Dense)                 (None, 64)                8256      
_________________________________________________________________
activation_3 (Activation)    (None, 64)                0         
_________________________________________________________________
dropout_3 (Dropout)          (None, 64)                0         
_________________________________________________________________
fc (Dense)                   (None, 3)                 195       
=================================================================
Total params: 30,753,923
Trainable params: 30,753,923
Non-trainable params: 0
_________________________________________________________________
Model fit ...
Epoch 1/50
97/97 - 77s - loss: 33.3311 - accuracy: 0.3531 - val_loss: 1.0986 - val_accuracy: 0.3502
Epoch 2/50
97/97 - 77s - loss: 1.1123 - accuracy: 0.3618 - val_loss: 1.0966 - val_accuracy: 0.3534
…
97/97 - 78s - loss: 1.0959 - accuracy: 0.3698 - val_loss: 1.0967 - val_accuracy: 0.3534
Epoch 23/50
97/97 - 76s - loss: 1.0954 - accuracy: 0.3698 - val_loss: 1.0967 - val_accuracy: 0.3534
Epoch 00023: early stopping
Model save ...
Model saved!
Running DNN

Model build ...
Model: "deep_FULL_GRAY_WAV"
_________________________________________________________________
Layer (type)                 Output Shape              Param #   
=================================================================
input (InputLayer)           [(None, 104, 73, 1)]      0         
_________________________________________________________________
flatten (Flatten)            (None, 7592)              0         
_________________________________________________________________
fc0 (Dense)                  (None, 1024)              7775232   
_________________________________________________________________
fc1 (Dense)                  (None, 512)               524800    
_________________________________________________________________
fc2 (Dense)                  (None, 256)               131328    
_________________________________________________________________
fc3 (Dense)                  (None, 128)               32896     
_________________________________________________________________
fc4 (Dense)                  (None, 64)                8256      
_________________________________________________________________
fc (Dense)                   (None, 3)                 195       
=================================================================
Total params: 8,472,707
Trainable params: 8,472,707
Non-trainable params: 0
_________________________________________________________________
Model fit ...
Epoch 1/50
97/97 - 84s - loss: 1.1830 - accuracy: 0.2861 - val_loss: 1.1017 - val_accuracy: 0.3103
Epoch 2/50
97/97 - 82s - loss: 1.1035 - accuracy: 0.3570 - val_loss: 1.0981 - val_accuracy: 0.3513
…
97/97 - 77s - loss: 1.0965 - accuracy: 0.3673 - val_loss: 1.0978 - val_accuracy: 0.3534
Epoch 13/50
97/97 - 77s - loss: 1.0960 - accuracy: 0.3711 - val_loss: 1.0979 - val_accuracy: 0.3534
Epoch 00013: early stopping
Model save ...
Model saved!
Running D-CNN

Model build ...
Model: "deep_cnn_FULL_GRAY_WAV"
_________________________________________________________________
Layer (type)                 Output Shape              Param #   
=================================================================
input (InputLayer)           [(None, 104, 73, 1)]      0         
_________________________________________________________________
conv64 (Conv2D)              (None, 104, 73, 64)       640       
_________________________________________________________________
activation (Activation)      (None, 104, 73, 64)       0         
_________________________________________________________________
dropout (Dropout)            (None, 104, 73, 64)       0         
_________________________________________________________________
conv128 (Conv2D)             (None, 104, 73, 128)      73856     
_________________________________________________________________
activation_1 (Activation)    (None, 104, 73, 128)      0         
_________________________________________________________________
dropout_1 (Dropout)          (None, 104, 73, 128)      0         
_________________________________________________________________
conv256 (Conv2D)             (None, 104, 73, 256)      295168    
_________________________________________________________________
activation_2 (Activation)    (None, 104, 73, 256)      0         
_________________________________________________________________
dropout_2 (Dropout)          (None, 104, 73, 256)      0         
_________________________________________________________________
max_pooling2d (MaxPooling2D) (None, 52, 36, 256)       0         
_________________________________________________________________
flatten (Flatten)            (None, 479232)            0         
_________________________________________________________________
fc128_A (Dense)              (None, 128)               61341824  
_________________________________________________________________
activation_3 (Activation)    (None, 128)               0         
_________________________________________________________________
dropout_3 (Dropout)          (None, 128)               0         
_________________________________________________________________
fc128_B (Dense)              (None, 128)               16512     
_________________________________________________________________
activation_4 (Activation)    (None, 128)               0         
_________________________________________________________________
dropout_4 (Dropout)          (None, 128)               0         
_________________________________________________________________
fc128_C (Dense)              (None, 128)               16512     
_________________________________________________________________
activation_5 (Activation)    (None, 128)               0         
_________________________________________________________________
dropout_5 (Dropout)          (None, 128)               0         
_________________________________________________________________
fc (Dense)                   (None, 3)                 387       
=================================================================
Total params: 61,744,899
Trainable params: 61,744,899
Non-trainable params: 0
_________________________________________________________________
Model fit ...
Epoch 1/50
97/97 - 77s - loss: 36.5664 - accuracy: 0.3351 - val_loss: 8.0632 - val_accuracy: 0.3114
Epoch 2/50
97/97 - 76s - loss: 1.5615 - accuracy: 0.3708 - val_loss: 1.2986 - val_accuracy: 0.3190
…
