Running CNN

Model build ...
Model: "cnn_FULL_GRAY_PCA"
_________________________________________________________________
Layer (type)                 Output Shape              Param #   
=================================================================
input (InputLayer)           [(None, 104, 32, 1)]      0         
_________________________________________________________________
conv64 (Conv2D)              (None, 104, 32, 64)       640       
_________________________________________________________________
activation (Activation)      (None, 104, 32, 64)       0         
_________________________________________________________________
dropout (Dropout)            (None, 104, 32, 64)       0         
_________________________________________________________________
conv128 (Conv2D)             (None, 104, 32, 128)      73856     
_________________________________________________________________
activation_1 (Activation)    (None, 104, 32, 128)      0         
_________________________________________________________________
dropout_1 (Dropout)          (None, 104, 32, 128)      0         
_________________________________________________________________
max_pooling2d (MaxPooling2D) (None, 52, 16, 128)       0         
_________________________________________________________________
flatten (Flatten)            (None, 106496)            0         
_________________________________________________________________
fc128 (Dense)                (None, 128)               13631616  
_________________________________________________________________
activation_2 (Activation)    (None, 128)               0         
_________________________________________________________________
dropout_2 (Dropout)          (None, 128)               0         
_________________________________________________________________
fc64 (Dense)                 (None, 64)                8256      
_________________________________________________________________
activation_3 (Activation)    (None, 64)                0         
_________________________________________________________________
dropout_3 (Dropout)          (None, 64)                0         
_________________________________________________________________
fc (Dense)                   (None, 3)                 195       
=================================================================
Total params: 13,714,563
Trainable params: 13,714,563
Non-trainable params: 0
_________________________________________________________________
Model fit ...
Epoch 1/50
97/97 - 145s - loss: 21.8919 - accuracy: 0.3286 - val_loss: 1.0978 - val_accuracy: 0.3491
Epoch 2/50
97/97 - 144s - loss: 1.1679 - accuracy: 0.3692 - val_loss: 1.0974 - val_accuracy: 0.3534
…
97/97 - 144s - loss: 1.0953 - accuracy: 0.3724 - val_loss: 1.0977 - val_accuracy: 0.3524
Epoch 12/50
97/97 - 145s - loss: 1.0957 - accuracy: 0.3669 - val_loss: 1.0978 - val_accuracy: 0.3534
Epoch 00012: early stopping
Model save ...
Model saved!
Running DNN

Model build ...
Model: "deep_FULL_GRAY_PCA"
_________________________________________________________________
Layer (type)                 Output Shape              Param #   
=================================================================
input (InputLayer)           [(None, 104, 32, 1)]      0         
_________________________________________________________________
flatten (Flatten)            (None, 3328)              0         
_________________________________________________________________
fc0 (Dense)                  (None, 1024)              3408896   
_________________________________________________________________
fc1 (Dense)                  (None, 512)               524800    
_________________________________________________________________
fc2 (Dense)                  (None, 256)               131328    
_________________________________________________________________
fc3 (Dense)                  (None, 128)               32896     
_________________________________________________________________
fc4 (Dense)                  (None, 64)                8256      
_________________________________________________________________
fc (Dense)                   (None, 3)                 195       
=================================================================
Total params: 4,106,371
Trainable params: 4,106,371
Non-trainable params: 0
_________________________________________________________________
Model fit ...
Epoch 1/50
97/97 - 147s - loss: 1.0975 - accuracy: 0.3628 - val_loss: 1.0954 - val_accuracy: 0.3556
Epoch 2/50
97/97 - 150s - loss: 1.0558 - accuracy: 0.3940 - val_loss: 1.1128 - val_accuracy: 0.3599
…
97/97 - 143s - loss: 0.0906 - accuracy: 0.9720 - val_loss: 3.3750 - val_accuracy: 0.3675
Epoch 17/50
97/97 - 143s - loss: 0.0569 - accuracy: 0.9797 - val_loss: 4.0562 - val_accuracy: 0.3631
Epoch 00017: early stopping
Model save ...
Model saved!
Running D-CNN

Model build ...
Model: "deep_cnn_FULL_GRAY_PCA"
_________________________________________________________________
Layer (type)                 Output Shape              Param #   
=================================================================
input (InputLayer)           [(None, 104, 32, 1)]      0         
_________________________________________________________________
conv64 (Conv2D)              (None, 104, 32, 64)       640       
_________________________________________________________________
activation (Activation)      (None, 104, 32, 64)       0         
_________________________________________________________________
dropout (Dropout)            (None, 104, 32, 64)       0         
_________________________________________________________________
conv128 (Conv2D)             (None, 104, 32, 128)      73856     
_________________________________________________________________
activation_1 (Activation)    (None, 104, 32, 128)      0         
_________________________________________________________________
dropout_1 (Dropout)          (None, 104, 32, 128)      0         
_________________________________________________________________
conv256 (Conv2D)             (None, 104, 32, 256)      295168    
_________________________________________________________________
activation_2 (Activation)    (None, 104, 32, 256)      0         
_________________________________________________________________
dropout_2 (Dropout)          (None, 104, 32, 256)      0         
_________________________________________________________________
max_pooling2d (MaxPooling2D) (None, 52, 16, 256)       0         
_________________________________________________________________
flatten (Flatten)            (None, 212992)            0         
_________________________________________________________________
fc128_A (Dense)              (None, 128)               27263104  
_________________________________________________________________
activation_3 (Activation)    (None, 128)               0         
_________________________________________________________________
dropout_3 (Dropout)          (None, 128)               0         
_________________________________________________________________
fc128_B (Dense)              (None, 128)               16512     
_________________________________________________________________
activation_4 (Activation)    (None, 128)               0         
_________________________________________________________________
dropout_4 (Dropout)          (None, 128)               0         
_________________________________________________________________
fc128_C (Dense)              (None, 128)               16512     
_________________________________________________________________
activation_5 (Activation)    (None, 128)               0         
_________________________________________________________________
dropout_5 (Dropout)          (None, 128)               0         
_________________________________________________________________
fc (Dense)                   (None, 3)                 387       
=================================================================
Total params: 27,666,179
Trainable params: 27,666,179
Non-trainable params: 0
_________________________________________________________________
Model fit ...
Epoch 1/50
97/97 - 126s - loss: 19.9023 - accuracy: 0.3473 - val_loss: 1.9717 - val_accuracy: 0.3341
Epoch 2/50
97/97 - 125s - loss: 1.1404 - accuracy: 0.3547 - val_loss: 3.6139 - val_accuracy: 0.3319
…
