Running CNN

Model build ...
Model: "cnn_FULL_HSV_PCA"
_________________________________________________________________
Layer (type)                 Output Shape              Param #   
=================================================================
input (InputLayer)           [(None, 104, 32, 3)]      0         
_________________________________________________________________
conv64 (Conv2D)              (None, 104, 32, 64)       1792      
_________________________________________________________________
activation (Activation)      (None, 104, 32, 64)       0         
_________________________________________________________________
dropout (Dropout)            (None, 104, 32, 64)       0         
_________________________________________________________________
conv128 (Conv2D)             (None, 104, 32, 128)      73856     
_________________________________________________________________
activation_1 (Activation)    (None, 104, 32, 128)      0         
_________________________________________________________________
dropout_1 (Dropout)          (None, 104, 32, 128)      0         
_________________________________________________________________
max_pooling2d (MaxPooling2D) (None, 52, 16, 128)       0         
_________________________________________________________________
flatten (Flatten)            (None, 106496)            0         
_________________________________________________________________
fc128 (Dense)                (None, 128)               13631616  
_________________________________________________________________
activation_2 (Activation)    (None, 128)               0         
_________________________________________________________________
dropout_2 (Dropout)          (None, 128)               0         
_________________________________________________________________
fc64 (Dense)                 (None, 64)                8256      
_________________________________________________________________
activation_3 (Activation)    (None, 64)                0         
_________________________________________________________________
dropout_3 (Dropout)          (None, 64)                0         
_________________________________________________________________
fc (Dense)                   (None, 3)                 195       
=================================================================
Total params: 13,715,715
Trainable params: 13,715,715
Non-trainable params: 0
_________________________________________________________________
Model fit ...
Epoch 1/50
97/97 - 678s - loss: 1.1081 - accuracy: 0.3557 - val_loss: 197.0843 - val_accuracy: 0.3190
Epoch 2/50
97/97 - 679s - loss: 1.0970 - accuracy: 0.3711 - val_loss: 304.3711 - val_accuracy: 0.3190
…
97/97 - 674s - loss: 1.0962 - accuracy: 0.3698 - val_loss: 945.6460 - val_accuracy: 0.3190
Epoch 11/50
97/97 - 676s - loss: 1.0955 - accuracy: 0.3724 - val_loss: 1099.9148 - val_accuracy: 0.3190
Epoch 00011: early stopping
Model save ...
Model saved!
Running DNN

Model build ...
Model: "deep_FULL_HSV_PCA"
_________________________________________________________________
Layer (type)                 Output Shape              Param #   
=================================================================
input (InputLayer)           [(None, 104, 32, 3)]      0         
_________________________________________________________________
flatten (Flatten)            (None, 9984)              0         
_________________________________________________________________
fc0 (Dense)                  (None, 1024)              10224640  
_________________________________________________________________
fc1 (Dense)                  (None, 512)               524800    
_________________________________________________________________
fc2 (Dense)                  (None, 256)               131328    
_________________________________________________________________
fc3 (Dense)                  (None, 128)               32896     
_________________________________________________________________
fc4 (Dense)                  (None, 64)                8256      
_________________________________________________________________
fc (Dense)                   (None, 3)                 195       
=================================================================
Total params: 10,922,115
Trainable params: 10,922,115
Non-trainable params: 0
_________________________________________________________________
Model fit ...
Epoch 1/50
97/97 - 688s - loss: 1.1035 - accuracy: 0.3595 - val_loss: 1.0977 - val_accuracy: 0.3642
