Running CNN

Model build ...
Model: "cnn_FULL_HSV_CANNY"
_________________________________________________________________
Layer (type)                 Output Shape              Param #   
=================================================================
input (InputLayer)           [(None, 104, 138, 3)]     0         
_________________________________________________________________
conv64 (Conv2D)              (None, 104, 138, 64)      1792      
_________________________________________________________________
activation (Activation)      (None, 104, 138, 64)      0         
_________________________________________________________________
dropout (Dropout)            (None, 104, 138, 64)      0         
_________________________________________________________________
conv128 (Conv2D)             (None, 104, 138, 128)     73856     
_________________________________________________________________
activation_1 (Activation)    (None, 104, 138, 128)     0         
_________________________________________________________________
dropout_1 (Dropout)          (None, 104, 138, 128)     0         
_________________________________________________________________
max_pooling2d (MaxPooling2D) (None, 52, 69, 128)       0         
_________________________________________________________________
flatten (Flatten)            (None, 459264)            0         
_________________________________________________________________
fc128 (Dense)                (None, 128)               58785920  
_________________________________________________________________
activation_2 (Activation)    (None, 128)               0         
_________________________________________________________________
dropout_2 (Dropout)          (None, 128)               0         
_________________________________________________________________
fc64 (Dense)                 (None, 64)                8256      
_________________________________________________________________
activation_3 (Activation)    (None, 64)                0         
_________________________________________________________________
dropout_3 (Dropout)          (None, 64)                0         
_________________________________________________________________
fc (Dense)                   (None, 3)                 195       
=================================================================
Total params: 58,870,019
Trainable params: 58,870,019
Non-trainable params: 0
_________________________________________________________________
Model fit ...
Epoch 1/50
97/97 - 429s - loss: 1.5552 - accuracy: 0.3438 - val_loss: 72.0276 - val_accuracy: 0.3060
Epoch 2/50
97/97 - 423s - loss: 1.0980 - accuracy: 0.3711 - val_loss: 135.6949 - val_accuracy: 0.3060
…
97/97 - 425s - loss: 1.0960 - accuracy: 0.3698 - val_loss: 417.8628 - val_accuracy: 0.3060
Epoch 11/50
97/97 - 426s - loss: 1.0953 - accuracy: 0.3724 - val_loss: 485.3008 - val_accuracy: 0.3060
Epoch 00011: early stopping
Model save ...
Model saved!
Running DNN

Model build ...
Model: "deep_FULL_HSV_CANNY"
_________________________________________________________________
Layer (type)                 Output Shape              Param #   
=================================================================
input (InputLayer)           [(None, 104, 138, 3)]     0         
_________________________________________________________________
flatten (Flatten)            (None, 43056)             0         
_________________________________________________________________
fc0 (Dense)                  (None, 1024)              44090368  
_________________________________________________________________
fc1 (Dense)                  (None, 512)               524800    
_________________________________________________________________
fc2 (Dense)                  (None, 256)               131328    
_________________________________________________________________
fc3 (Dense)                  (None, 128)               32896     
_________________________________________________________________
fc4 (Dense)                  (None, 64)                8256      
_________________________________________________________________
fc (Dense)                   (None, 3)                 195       
=================================================================
Total params: 44,787,843
Trainable params: 44,787,843
Non-trainable params: 0
_________________________________________________________________
Model fit ...
Epoch 1/50
97/97 - 430s - loss: 1.1415 - accuracy: 0.3486 - val_loss: 1.0681 - val_accuracy: 0.3966
Epoch 2/50
97/97 - 425s - loss: 0.9789 - accuracy: 0.5013 - val_loss: 1.2182 - val_accuracy: 0.4149
…
97/97 - 426s - loss: 0.0188 - accuracy: 0.9948 - val_loss: 2.8072 - val_accuracy: 0.4892
Epoch 13/50
97/97 - 425s - loss: 0.0157 - accuracy: 0.9952 - val_loss: 3.5143 - val_accuracy: 0.4763
Epoch 00013: early stopping
Model save ...
Model saved!
Running D-CNN

Model build ...
Model: "deep_cnn_FULL_HSV_CANNY"
_________________________________________________________________
Layer (type)                 Output Shape              Param #   
=================================================================
input (InputLayer)           [(None, 104, 138, 3)]     0         
_________________________________________________________________
conv64 (Conv2D)              (None, 104, 138, 64)      1792      
_________________________________________________________________
activation (Activation)      (None, 104, 138, 64)      0         
_________________________________________________________________
dropout (Dropout)            (None, 104, 138, 64)      0         
_________________________________________________________________
conv128 (Conv2D)             (None, 104, 138, 128)     73856     
_________________________________________________________________
activation_1 (Activation)    (None, 104, 138, 128)     0         
_________________________________________________________________
dropout_1 (Dropout)          (None, 104, 138, 128)     0         
_________________________________________________________________
conv256 (Conv2D)             (None, 104, 138, 256)     295168    
_________________________________________________________________
activation_2 (Activation)    (None, 104, 138, 256)     0         
_________________________________________________________________
dropout_2 (Dropout)          (None, 104, 138, 256)     0         
_________________________________________________________________
max_pooling2d (MaxPooling2D) (None, 52, 69, 256)       0         
_________________________________________________________________
flatten (Flatten)            (None, 918528)            0         
_________________________________________________________________
fc128_A (Dense)              (None, 128)               117571712 
_________________________________________________________________
activation_3 (Activation)    (None, 128)               0         
_________________________________________________________________
dropout_3 (Dropout)          (None, 128)               0         
_________________________________________________________________
fc128_B (Dense)              (None, 128)               16512     
_________________________________________________________________
activation_4 (Activation)    (None, 128)               0         
_________________________________________________________________
dropout_4 (Dropout)          (None, 128)               0         
_________________________________________________________________
fc128_C (Dense)              (None, 128)               16512     
_________________________________________________________________
activation_5 (Activation)    (None, 128)               0         
_________________________________________________________________
dropout_5 (Dropout)          (None, 128)               0         
_________________________________________________________________
fc (Dense)                   (None, 3)                 387       
=================================================================
Total params: 117,975,939
Trainable params: 117,975,939
Non-trainable params: 0
_________________________________________________________________
Model fit ...
Epoch 1/50
97/97 - 430s - loss: 6.7233 - accuracy: 0.3541 - val_loss: 35.3249 - val_accuracy: 0.3685
Epoch 2/50
97/97 - 424s - loss: 1.1230 - accuracy: 0.3621 - val_loss: 93.1313 - val_accuracy: 0.3664
…
