Running CNN

Model build ...
Model: "cnn_FULL_HSV_WAV"
_________________________________________________________________
Layer (type)                 Output Shape              Param #   
=================================================================
input (InputLayer)           [(None, 104, 73, 2)]      0         
_________________________________________________________________
conv64 (Conv2D)              (None, 104, 73, 64)       1216      
_________________________________________________________________
activation (Activation)      (None, 104, 73, 64)       0         
_________________________________________________________________
dropout (Dropout)            (None, 104, 73, 64)       0         
_________________________________________________________________
conv128 (Conv2D)             (None, 104, 73, 128)      73856     
_________________________________________________________________
activation_1 (Activation)    (None, 104, 73, 128)      0         
_________________________________________________________________
dropout_1 (Dropout)          (None, 104, 73, 128)      0         
_________________________________________________________________
max_pooling2d (MaxPooling2D) (None, 52, 36, 128)       0         
_________________________________________________________________
flatten (Flatten)            (None, 239616)            0         
_________________________________________________________________
fc128 (Dense)                (None, 128)               30670976  
_________________________________________________________________
activation_2 (Activation)    (None, 128)               0         
_________________________________________________________________
dropout_2 (Dropout)          (None, 128)               0         
_________________________________________________________________
fc64 (Dense)                 (None, 64)                8256      
_________________________________________________________________
activation_3 (Activation)    (None, 64)                0         
_________________________________________________________________
dropout_3 (Dropout)          (None, 64)                0         
_________________________________________________________________
fc (Dense)                   (None, 3)                 195       
=================================================================
Total params: 30,754,499
Trainable params: 30,754,499
Non-trainable params: 0
_________________________________________________________________
Model fit ...
Epoch 1/50
97/97 - 413s - loss: 1.1098 - accuracy: 0.3505 - val_loss: 204.7260 - val_accuracy: 0.3190
Epoch 2/50
97/97 - 408s - loss: 1.0970 - accuracy: 0.3711 - val_loss: 376.4275 - val_accuracy: 0.3190
…
97/97 - 414s - loss: 1.0965 - accuracy: 0.3698 - val_loss: 1669.8872 - val_accuracy: 0.3190
Epoch 11/50
97/97 - 413s - loss: 1.0951 - accuracy: 0.3724 - val_loss: 1942.4047 - val_accuracy: 0.3190
Epoch 00011: early stopping
Model save ...
Model saved!
Running DNN

Model build ...
Model: "deep_FULL_HSV_WAV"
_________________________________________________________________
Layer (type)                 Output Shape              Param #   
=================================================================
input (InputLayer)           [(None, 104, 73, 2)]      0         
_________________________________________________________________
flatten (Flatten)            (None, 15184)             0         
_________________________________________________________________
fc0 (Dense)                  (None, 1024)              15549440  
_________________________________________________________________
fc1 (Dense)                  (None, 512)               524800    
_________________________________________________________________
fc2 (Dense)                  (None, 256)               131328    
_________________________________________________________________
fc3 (Dense)                  (None, 128)               32896     
_________________________________________________________________
fc4 (Dense)                  (None, 64)                8256      
_________________________________________________________________
fc (Dense)                   (None, 3)                 195       
=================================================================
Total params: 16,246,915
Trainable params: 16,246,915
Non-trainable params: 0
_________________________________________________________________
Model fit ...
Epoch 1/50
97/97 - 409s - loss: 1.3353 - accuracy: 0.3241 - val_loss: 1.1038 - val_accuracy: 0.3103
Epoch 2/50
97/97 - 408s - loss: 1.1032 - accuracy: 0.3202 - val_loss: 1.0979 - val_accuracy: 0.3534
…
