Running CNN

Model build ...
Model: "cnn_FULL_HSV_PCA"
_________________________________________________________________
Layer (type)                 Output Shape              Param #   
=================================================================
input (InputLayer)           [(None, 104, 32, 3)]      0         
_________________________________________________________________
conv64 (Conv2D)              (None, 104, 32, 64)       1792      
_________________________________________________________________
activation (Activation)      (None, 104, 32, 64)       0         
_________________________________________________________________
dropout (Dropout)            (None, 104, 32, 64)       0         
_________________________________________________________________
conv128 (Conv2D)             (None, 104, 32, 128)      73856     
_________________________________________________________________
activation_1 (Activation)    (None, 104, 32, 128)      0         
_________________________________________________________________
dropout_1 (Dropout)          (None, 104, 32, 128)      0         
_________________________________________________________________
max_pooling2d (MaxPooling2D) (None, 52, 16, 128)       0         
_________________________________________________________________
flatten (Flatten)            (None, 106496)            0         
_________________________________________________________________
fc128 (Dense)                (None, 128)               13631616  
_________________________________________________________________
activation_2 (Activation)    (None, 128)               0         
_________________________________________________________________
dropout_2 (Dropout)          (None, 128)               0         
_________________________________________________________________
fc64 (Dense)                 (None, 64)                8256      
_________________________________________________________________
activation_3 (Activation)    (None, 64)                0         
_________________________________________________________________
dropout_3 (Dropout)          (None, 64)                0         
_________________________________________________________________
fc (Dense)                   (None, 3)                 195       
=================================================================
Total params: 13,715,715
Trainable params: 13,715,715
Non-trainable params: 0
_________________________________________________________________
Model fit ...
Epoch 1/50
97/97 - 678s - loss: 1.1081 - accuracy: 0.3557 - val_loss: 197.0843 - val_accuracy: 0.3190
Epoch 2/50
97/97 - 679s - loss: 1.0970 - accuracy: 0.3711 - val_loss: 304.3711 - val_accuracy: 0.3190
…
97/97 - 674s - loss: 1.0962 - accuracy: 0.3698 - val_loss: 945.6460 - val_accuracy: 0.3190
Epoch 11/50
97/97 - 676s - loss: 1.0955 - accuracy: 0.3724 - val_loss: 1099.9148 - val_accuracy: 0.3190
Epoch 00011: early stopping
Model save ...
Model saved!
Running DNN

Model build ...
Model: "deep_FULL_HSV_PCA"
_________________________________________________________________
Layer (type)                 Output Shape              Param #   
=================================================================
input (InputLayer)           [(None, 104, 32, 3)]      0         
_________________________________________________________________
flatten (Flatten)            (None, 9984)              0         
_________________________________________________________________
fc0 (Dense)                  (None, 1024)              10224640  
_________________________________________________________________
fc1 (Dense)                  (None, 512)               524800    
_________________________________________________________________
fc2 (Dense)                  (None, 256)               131328    
_________________________________________________________________
fc3 (Dense)                  (None, 128)               32896     
_________________________________________________________________
fc4 (Dense)                  (None, 64)                8256      
_________________________________________________________________
fc (Dense)                   (None, 3)                 195       
=================================================================
Total params: 10,922,115
Trainable params: 10,922,115
Non-trainable params: 0
_________________________________________________________________
Model fit ...
Epoch 1/50
97/97 - 688s - loss: 1.1035 - accuracy: 0.3595 - val_loss: 1.0977 - val_accuracy: 0.3642
Epoch 2/50
97/97 - 680s - loss: 1.0578 - accuracy: 0.3814 - val_loss: 1.1143 - val_accuracy: 0.3265
…
97/97 - 555s - loss: 0.0017 - accuracy: 0.9997 - val_loss: 5.3976 - val_accuracy: 0.3524
Epoch 34/50
97/97 - 546s - loss: 0.0307 - accuracy: 0.9913 - val_loss: 3.8812 - val_accuracy: 0.3524
Epoch 00034: early stopping
Model save ...
Model saved!
Running D-CNN

Model build ...
Model: "deep_cnn_FULL_HSV_PCA"
_________________________________________________________________
Layer (type)                 Output Shape              Param #   
=================================================================
input (InputLayer)           [(None, 104, 32, 3)]      0         
_________________________________________________________________
conv64 (Conv2D)              (None, 104, 32, 64)       1792      
_________________________________________________________________
activation (Activation)      (None, 104, 32, 64)       0         
_________________________________________________________________
dropout (Dropout)            (None, 104, 32, 64)       0         
_________________________________________________________________
conv128 (Conv2D)             (None, 104, 32, 128)      73856     
_________________________________________________________________
activation_1 (Activation)    (None, 104, 32, 128)      0         
_________________________________________________________________
dropout_1 (Dropout)          (None, 104, 32, 128)      0         
_________________________________________________________________
conv256 (Conv2D)             (None, 104, 32, 256)      295168    
_________________________________________________________________
activation_2 (Activation)    (None, 104, 32, 256)      0         
_________________________________________________________________
dropout_2 (Dropout)          (None, 104, 32, 256)      0         
_________________________________________________________________
max_pooling2d (MaxPooling2D) (None, 52, 16, 256)       0         
_________________________________________________________________
flatten (Flatten)            (None, 212992)            0         
_________________________________________________________________
fc128_A (Dense)              (None, 128)               27263104  
_________________________________________________________________
activation_3 (Activation)    (None, 128)               0         
_________________________________________________________________
dropout_3 (Dropout)          (None, 128)               0         
_________________________________________________________________
fc128_B (Dense)              (None, 128)               16512     
_________________________________________________________________
activation_4 (Activation)    (None, 128)               0         
_________________________________________________________________
dropout_4 (Dropout)          (None, 128)               0         
_________________________________________________________________
fc128_C (Dense)              (None, 128)               16512     
_________________________________________________________________
activation_5 (Activation)    (None, 128)               0         
_________________________________________________________________
dropout_5 (Dropout)          (None, 128)               0         
_________________________________________________________________
fc (Dense)                   (None, 3)                 387       
=================================================================
Total params: 27,667,331
Trainable params: 27,667,331
Non-trainable params: 0
_________________________________________________________________
Model fit ...
Epoch 1/50
97/97 - 556s - loss: 1.4229 - accuracy: 0.3502 - val_loss: 58.6846 - val_accuracy: 0.3534
Epoch 2/50
97/97 - 562s - loss: 1.1014 - accuracy: 0.3686 - val_loss: 147.4591 - val_accuracy: 0.3534
…
