Running CNN

Model build ...
Model: "cnn_FULL_RGB_WAV"
_________________________________________________________________
Layer (type)                 Output Shape              Param #   
=================================================================
input (InputLayer)           [(None, 104, 73, 3)]      0         
_________________________________________________________________
conv64 (Conv2D)              (None, 104, 73, 64)       1792      
_________________________________________________________________
activation (Activation)      (None, 104, 73, 64)       0         
_________________________________________________________________
dropout (Dropout)            (None, 104, 73, 64)       0         
_________________________________________________________________
conv128 (Conv2D)             (None, 104, 73, 128)      73856     
_________________________________________________________________
activation_1 (Activation)    (None, 104, 73, 128)      0         
_________________________________________________________________
dropout_1 (Dropout)          (None, 104, 73, 128)      0         
_________________________________________________________________
max_pooling2d (MaxPooling2D) (None, 52, 36, 128)       0         
_________________________________________________________________
flatten (Flatten)            (None, 239616)            0         
_________________________________________________________________
fc128 (Dense)                (None, 128)               30670976  
_________________________________________________________________
activation_2 (Activation)    (None, 128)               0         
_________________________________________________________________
dropout_2 (Dropout)          (None, 128)               0         
_________________________________________________________________
fc64 (Dense)                 (None, 64)                8256      
_________________________________________________________________
activation_3 (Activation)    (None, 64)                0         
_________________________________________________________________
dropout_3 (Dropout)          (None, 64)                0         
_________________________________________________________________
fc (Dense)                   (None, 3)                 195       
=================================================================
Total params: 30,755,075
Trainable params: 30,755,075
Non-trainable params: 0
_________________________________________________________________
Model fit ...
Epoch 1/50
97/97 - 205s - loss: 1.1199 - accuracy: 0.3473 - val_loss: 357.7335 - val_accuracy: 0.3190
Epoch 2/50
97/97 - 207s - loss: 1.0972 - accuracy: 0.3711 - val_loss: 622.4703 - val_accuracy: 0.3190
…
97/97 - 208s - loss: 1.0965 - accuracy: 0.3698 - val_loss: 2711.6313 - val_accuracy: 0.3190
Epoch 11/50
97/97 - 209s - loss: 1.0952 - accuracy: 0.3724 - val_loss: 3212.3862 - val_accuracy: 0.3190
Epoch 00011: early stopping
Model save ...
Model saved!
Running DNN

Model build ...
Model: "deep_FULL_RGB_WAV"
_________________________________________________________________
Layer (type)                 Output Shape              Param #   
=================================================================
input (InputLayer)           [(None, 104, 73, 3)]      0         
_________________________________________________________________
flatten (Flatten)            (None, 22776)             0         
_________________________________________________________________
fc0 (Dense)                  (None, 1024)              23323648  
_________________________________________________________________
fc1 (Dense)                  (None, 512)               524800    
_________________________________________________________________
fc2 (Dense)                  (None, 256)               131328    
_________________________________________________________________
fc3 (Dense)                  (None, 128)               32896     
_________________________________________________________________
fc4 (Dense)                  (None, 64)                8256      
_________________________________________________________________
fc (Dense)                   (None, 3)                 195       
=================================================================
Total params: 24,021,123
Trainable params: 24,021,123
Non-trainable params: 0
_________________________________________________________________
Model fit ...
Epoch 1/50
97/97 - 211s - loss: 1.3358 - accuracy: 0.3202 - val_loss: 1.1385 - val_accuracy: 0.3362
Epoch 2/50
97/97 - 213s - loss: 1.1114 - accuracy: 0.3431 - val_loss: 1.1001 - val_accuracy: 0.3362
…
97/97 - 217s - loss: 1.0966 - accuracy: 0.3673 - val_loss: 1.0979 - val_accuracy: 0.3534
Epoch 13/50
97/97 - 219s - loss: 1.0960 - accuracy: 0.3711 - val_loss: 1.0979 - val_accuracy: 0.3534
Epoch 00013: early stopping
Model save ...
Model saved!
Running D-CNN

Model build ...
Model: "deep_cnn_FULL_RGB_WAV"
_________________________________________________________________
Layer (type)                 Output Shape              Param #   
=================================================================
input (InputLayer)           [(None, 104, 73, 3)]      0         
_________________________________________________________________
conv64 (Conv2D)              (None, 104, 73, 64)       1792      
_________________________________________________________________
activation (Activation)      (None, 104, 73, 64)       0         
_________________________________________________________________
dropout (Dropout)            (None, 104, 73, 64)       0         
_________________________________________________________________
conv128 (Conv2D)             (None, 104, 73, 128)      73856     
_________________________________________________________________
activation_1 (Activation)    (None, 104, 73, 128)      0         
_________________________________________________________________
dropout_1 (Dropout)          (None, 104, 73, 128)      0         
_________________________________________________________________
conv256 (Conv2D)             (None, 104, 73, 256)      295168    
_________________________________________________________________
activation_2 (Activation)    (None, 104, 73, 256)      0         
_________________________________________________________________
dropout_2 (Dropout)          (None, 104, 73, 256)      0         
_________________________________________________________________
max_pooling2d (MaxPooling2D) (None, 52, 36, 256)       0         
_________________________________________________________________
flatten (Flatten)            (None, 479232)            0         
_________________________________________________________________
fc128_A (Dense)              (None, 128)               61341824  
_________________________________________________________________
activation_3 (Activation)    (None, 128)               0         
_________________________________________________________________
dropout_3 (Dropout)          (None, 128)               0         
_________________________________________________________________
fc128_B (Dense)              (None, 128)               16512     
_________________________________________________________________
activation_4 (Activation)    (None, 128)               0         
_________________________________________________________________
dropout_4 (Dropout)          (None, 128)               0         
_________________________________________________________________
fc128_C (Dense)              (None, 128)               16512     
_________________________________________________________________
activation_5 (Activation)    (None, 128)               0         
_________________________________________________________________
dropout_5 (Dropout)          (None, 128)               0         
_________________________________________________________________
fc (Dense)                   (None, 3)                 387       
=================================================================
Total params: 61,746,051
Trainable params: 61,746,051
Non-trainable params: 0
_________________________________________________________________
Model fit ...
Epoch 1/50
97/97 - 209s - loss: 1.1258 - accuracy: 0.3460 - val_loss: 24.3616 - val_accuracy: 0.3276
Epoch 2/50
97/97 - 211s - loss: 1.0995 - accuracy: 0.3711 - val_loss: 43.5237 - val_accuracy: 0.3276
…
