Running CNN

Model build ...
Model: "cnn_FULL_RGB_CANNY"
_________________________________________________________________
Layer (type)                 Output Shape              Param #   
=================================================================
input (InputLayer)           [(None, 104, 138, 3)]     0         
_________________________________________________________________
conv64 (Conv2D)              (None, 104, 138, 64)      1792      
_________________________________________________________________
activation (Activation)      (None, 104, 138, 64)      0         
_________________________________________________________________
dropout (Dropout)            (None, 104, 138, 64)      0         
_________________________________________________________________
conv128 (Conv2D)             (None, 104, 138, 128)     73856     
_________________________________________________________________
activation_1 (Activation)    (None, 104, 138, 128)     0         
_________________________________________________________________
dropout_1 (Dropout)          (None, 104, 138, 128)     0         
_________________________________________________________________
max_pooling2d (MaxPooling2D) (None, 52, 69, 128)       0         
_________________________________________________________________
flatten (Flatten)            (None, 459264)            0         
_________________________________________________________________
fc128 (Dense)                (None, 128)               58785920  
_________________________________________________________________
activation_2 (Activation)    (None, 128)               0         
_________________________________________________________________
dropout_2 (Dropout)          (None, 128)               0         
_________________________________________________________________
fc64 (Dense)                 (None, 64)                8256      
_________________________________________________________________
activation_3 (Activation)    (None, 64)                0         
_________________________________________________________________
dropout_3 (Dropout)          (None, 64)                0         
_________________________________________________________________
fc (Dense)                   (None, 3)                 195       
=================================================================
Total params: 58,870,019
Trainable params: 58,870,019
Non-trainable params: 0
_________________________________________________________________
Model fit ...
Epoch 1/50
97/97 - 224s - loss: 1.2173 - accuracy: 0.4523 - val_loss: 1.0920 - val_accuracy: 0.3459
Epoch 2/50
97/97 - 224s - loss: 0.9620 - accuracy: 0.5235 - val_loss: 1.1032 - val_accuracy: 0.3448
…
97/97 - 226s - loss: 0.0541 - accuracy: 0.9700 - val_loss: 3.0669 - val_accuracy: 0.4300
Epoch 14/50
97/97 - 226s - loss: 0.0521 - accuracy: 0.9671 - val_loss: 3.2832 - val_accuracy: 0.4256
Epoch 00014: early stopping
Model save ...
Model saved!
Running DNN

Model build ...
Model: "deep_FULL_RGB_CANNY"
_________________________________________________________________
Layer (type)                 Output Shape              Param #   
=================================================================
input (InputLayer)           [(None, 104, 138, 3)]     0         
_________________________________________________________________
flatten (Flatten)            (None, 43056)             0         
_________________________________________________________________
fc0 (Dense)                  (None, 1024)              44090368  
_________________________________________________________________
fc1 (Dense)                  (None, 512)               524800    
_________________________________________________________________
fc2 (Dense)                  (None, 256)               131328    
_________________________________________________________________
fc3 (Dense)                  (None, 128)               32896     
_________________________________________________________________
fc4 (Dense)                  (None, 64)                8256      
_________________________________________________________________
fc (Dense)                   (None, 3)                 195       
=================================================================
Total params: 44,787,843
Trainable params: 44,787,843
Non-trainable params: 0
_________________________________________________________________
Model fit ...
Epoch 1/50
97/97 - 232s - loss: 1.1084 - accuracy: 0.4456 - val_loss: 1.1075 - val_accuracy: 0.4397
Epoch 2/50
97/97 - 231s - loss: 0.9150 - accuracy: 0.5609 - val_loss: 1.1503 - val_accuracy: 0.4181
…
97/97 - 231s - loss: 0.0937 - accuracy: 0.9552 - val_loss: 6.0188 - val_accuracy: 0.4515
Epoch 14/50
97/97 - 229s - loss: 0.1222 - accuracy: 0.9472 - val_loss: 2.7900 - val_accuracy: 0.4224
Epoch 00014: early stopping
Model save ...
Model saved!
Running D-CNN

Model build ...
Model: "deep_cnn_FULL_RGB_CANNY"
_________________________________________________________________
Layer (type)                 Output Shape              Param #   
=================================================================
input (InputLayer)           [(None, 104, 138, 3)]     0         
_________________________________________________________________
conv64 (Conv2D)              (None, 104, 138, 64)      1792      
_________________________________________________________________
activation (Activation)      (None, 104, 138, 64)      0         
_________________________________________________________________
dropout (Dropout)            (None, 104, 138, 64)      0         
_________________________________________________________________
conv128 (Conv2D)             (None, 104, 138, 128)     73856     
_________________________________________________________________
activation_1 (Activation)    (None, 104, 138, 128)     0         
_________________________________________________________________
dropout_1 (Dropout)          (None, 104, 138, 128)     0         
_________________________________________________________________
conv256 (Conv2D)             (None, 104, 138, 256)     295168    
_________________________________________________________________
activation_2 (Activation)    (None, 104, 138, 256)     0         
_________________________________________________________________
dropout_2 (Dropout)          (None, 104, 138, 256)     0         
_________________________________________________________________
max_pooling2d (MaxPooling2D) (None, 52, 69, 256)       0         
_________________________________________________________________
flatten (Flatten)            (None, 918528)            0         
_________________________________________________________________
fc128_A (Dense)              (None, 128)               117571712 
_________________________________________________________________
activation_3 (Activation)    (None, 128)               0         
_________________________________________________________________
dropout_3 (Dropout)          (None, 128)               0         
_________________________________________________________________
fc128_B (Dense)              (None, 128)               16512     
_________________________________________________________________
activation_4 (Activation)    (None, 128)               0         
_________________________________________________________________
dropout_4 (Dropout)          (None, 128)               0         
_________________________________________________________________
fc128_C (Dense)              (None, 128)               16512     
_________________________________________________________________
activation_5 (Activation)    (None, 128)               0         
_________________________________________________________________
dropout_5 (Dropout)          (None, 128)               0         
_________________________________________________________________
fc (Dense)                   (None, 3)                 387       
=================================================================
Total params: 117,975,939
Trainable params: 117,975,939
Non-trainable params: 0
_________________________________________________________________
Model fit ...
Epoch 1/50
97/97 - 228s - loss: 1.2720 - accuracy: 0.4333 - val_loss: 1.1220 - val_accuracy: 0.3103
Epoch 2/50
97/97 - 228s - loss: 1.0540 - accuracy: 0.4330 - val_loss: 1.0990 - val_accuracy: 0.3168
…
