Running CNN

Model build ...
Model: "cnn_FULL_RGB_PCA"
_________________________________________________________________
Layer (type)                 Output Shape              Param #   
=================================================================
input (InputLayer)           [(None, 104, 32, 3)]      0         
_________________________________________________________________
conv64 (Conv2D)              (None, 104, 32, 64)       1792      
_________________________________________________________________
activation (Activation)      (None, 104, 32, 64)       0         
_________________________________________________________________
dropout (Dropout)            (None, 104, 32, 64)       0         
_________________________________________________________________
conv128 (Conv2D)             (None, 104, 32, 128)      73856     
_________________________________________________________________
activation_1 (Activation)    (None, 104, 32, 128)      0         
_________________________________________________________________
dropout_1 (Dropout)          (None, 104, 32, 128)      0         
_________________________________________________________________
max_pooling2d (MaxPooling2D) (None, 52, 16, 128)       0         
_________________________________________________________________
flatten (Flatten)            (None, 106496)            0         
_________________________________________________________________
fc128 (Dense)                (None, 128)               13631616  
_________________________________________________________________
activation_2 (Activation)    (None, 128)               0         
_________________________________________________________________
dropout_2 (Dropout)          (None, 128)               0         
_________________________________________________________________
fc64 (Dense)                 (None, 64)                8256      
_________________________________________________________________
activation_3 (Activation)    (None, 64)                0         
_________________________________________________________________
dropout_3 (Dropout)          (None, 64)                0         
_________________________________________________________________
fc (Dense)                   (None, 3)                 195       
=================================================================
Total params: 13,715,715
Trainable params: 13,715,715
Non-trainable params: 0
_________________________________________________________________
Model fit ...
Epoch 1/50
97/97 - 428s - loss: 1.1115 - accuracy: 0.3631 - val_loss: 144.7830 - val_accuracy: 0.3190
Epoch 2/50
97/97 - 429s - loss: 1.0970 - accuracy: 0.3711 - val_loss: 258.7159 - val_accuracy: 0.3190
…
97/97 - 415s - loss: 1.0964 - accuracy: 0.3698 - val_loss: 999.8452 - val_accuracy: 0.3190
Epoch 11/50
97/97 - 423s - loss: 1.0958 - accuracy: 0.3724 - val_loss: 1150.9397 - val_accuracy: 0.3190
Epoch 00011: early stopping
Model save ...
Model saved!
Running DNN

Model build ...
Model: "deep_FULL_RGB_PCA"
_________________________________________________________________
Layer (type)                 Output Shape              Param #   
=================================================================
input (InputLayer)           [(None, 104, 32, 3)]      0         
_________________________________________________________________
flatten (Flatten)            (None, 9984)              0         
_________________________________________________________________
fc0 (Dense)                  (None, 1024)              10224640  
_________________________________________________________________
fc1 (Dense)                  (None, 512)               524800    
_________________________________________________________________
fc2 (Dense)                  (None, 256)               131328    
_________________________________________________________________
fc3 (Dense)                  (None, 128)               32896     
_________________________________________________________________
fc4 (Dense)                  (None, 64)                8256      
_________________________________________________________________
fc (Dense)                   (None, 3)                 195       
=================================================================
Total params: 10,922,115
Trainable params: 10,922,115
Non-trainable params: 0
_________________________________________________________________
Model fit ...
Epoch 1/50
97/97 - 430s - loss: 1.1009 - accuracy: 0.3505 - val_loss: 1.0968 - val_accuracy: 0.3448
Epoch 2/50
97/97 - 420s - loss: 1.0293 - accuracy: 0.4127 - val_loss: 1.1416 - val_accuracy: 0.3179
…
97/97 - 400s - loss: 0.0231 - accuracy: 0.9913 - val_loss: 4.4867 - val_accuracy: 0.3114
Epoch 26/50
97/97 - 398s - loss: 0.0170 - accuracy: 0.9929 - val_loss: 5.0749 - val_accuracy: 0.3179
Epoch 00026: early stopping
Model save ...
Model saved!
Running D-CNN

Model build ...
Model: "deep_cnn_FULL_RGB_PCA"
_________________________________________________________________
Layer (type)                 Output Shape              Param #   
=================================================================
input (InputLayer)           [(None, 104, 32, 3)]      0         
_________________________________________________________________
conv64 (Conv2D)              (None, 104, 32, 64)       1792      
_________________________________________________________________
activation (Activation)      (None, 104, 32, 64)       0         
_________________________________________________________________
dropout (Dropout)            (None, 104, 32, 64)       0         
_________________________________________________________________
conv128 (Conv2D)             (None, 104, 32, 128)      73856     
_________________________________________________________________
activation_1 (Activation)    (None, 104, 32, 128)      0         
_________________________________________________________________
dropout_1 (Dropout)          (None, 104, 32, 128)      0         
_________________________________________________________________
conv256 (Conv2D)             (None, 104, 32, 256)      295168    
_________________________________________________________________
activation_2 (Activation)    (None, 104, 32, 256)      0         
_________________________________________________________________
dropout_2 (Dropout)          (None, 104, 32, 256)      0         
_________________________________________________________________
max_pooling2d (MaxPooling2D) (None, 52, 16, 256)       0         
_________________________________________________________________
flatten (Flatten)            (None, 212992)            0         
_________________________________________________________________
fc128_A (Dense)              (None, 128)               27263104  
_________________________________________________________________
activation_3 (Activation)    (None, 128)               0         
_________________________________________________________________
dropout_3 (Dropout)          (None, 128)               0         
_________________________________________________________________
fc128_B (Dense)              (None, 128)               16512     
_________________________________________________________________
activation_4 (Activation)    (None, 128)               0         
_________________________________________________________________
dropout_4 (Dropout)          (None, 128)               0         
_________________________________________________________________
fc128_C (Dense)              (None, 128)               16512     
_________________________________________________________________
activation_5 (Activation)    (None, 128)               0         
_________________________________________________________________
dropout_5 (Dropout)          (None, 128)               0         
_________________________________________________________________
fc (Dense)                   (None, 3)                 387       
=================================================================
Total params: 27,667,331
Trainable params: 27,667,331
Non-trainable params: 0
_________________________________________________________________
Model fit ...
Epoch 1/50
97/97 - 386s - loss: 1.3902 - accuracy: 0.3380 - val_loss: 46.9439 - val_accuracy: 0.3534
Epoch 2/50
97/97 - 387s - loss: 1.1007 - accuracy: 0.3692 - val_loss: 112.1178 - val_accuracy: 0.3534
…
